dqn-duelingdqn/checkpoint.pth (torch_old, 63045 bytes, 9 tensors)

fc1.weight f4 [128, 37]
000000 68 63 07 3c 69 23 67 bd 39 51 35 3e ca e2 8b be
       0.008263446 -0.056430254 0.17706765 -0.27321464
000010 0b 31 4a bf f1 f8 f5 bd 8b 91 ac bc 87 b7 cd 3d
       -0.78981084 -0.120103724 -0.021065494 0.10044771
000020 23 cc 89 3d 74 8d 92 be 3c 04 b7 bd 31 cd 91 be
       0.06728389 -0.28623545 -0.089363545 -0.2847686
000030 7a fe c0 bd fa db b7 bc 24 76 55 bd 16 34 cb 3c
       -0.094235376 -0.02244376 -0.05211462 0.02480511
000040 df b7 77 be 0d 43 23 be b5 47 38 3c 87 46 9d bf
       -0.24191235 -0.15943547 0.011247565 -1.2287148
000050 70 a3 4c be 88 27 9b bd d5 fc 2e be fb b5 bd 3c
       -0.19984221 -0.07575899 -0.17088635 0.023158064
000060 fa 45 25 3e 9c e6 29 bd c8 e7 fb bc e3 27 18 3c
       0.16139975 -0.041479692 -0.03075017 0.0092868535
000070 78 59 f8 bd e2 5f 4d be af 97 38 bd 77 04 17 3e
       -0.1212644 -0.20056108 -0.04506653 0.14747797
000080 38 d9 de be 0c 8f c6 bc 11 d8 00 3f e9 8f a5 3e
       -0.435251 -0.024238132 0.5032969 0.32336357
000090 a0 d8 a6 3d 5c cc 4e 3e cc 5e 08 be 08 a2 1d be
       0.08146787 0.20195144 -0.13317412 -0.15393841
0000a0 b9 16 e8 3d 2b 17 42 3d af 71 a6 3d ca 16 24 3e
       0.11332459 0.047385376 0.08127152 0.16024318
0000b0 0a 54 f5 be b5 b5 b1 3e 39 1c 81 3e 60 91 8c bd
       -0.4791568 0.34708944 0.25216845 -0.068636656
0000c0 9d e1 00 be a5 d2 0f 3e 67 7e 79 3c 8b d2 f7 3d
       -0.12586065 0.14045198 0.015227891 0.12100705
0000d0 1b fe 8b bd cd 89 32 3d fb 65 da bd cb 89 5e 3e
       -0.06835576 0.04358845 -0.106639825 0.21732251
0000e0 3f 66 9a 3e 0f e9 9b bd 8e 97 1c 3d bb 6c e6 3d
       0.30156133 -0.07612812 0.03823047 0.112512074
0000f0 98 d5 bd bd 82 0b 4c be 52 ca 8d 3e 4a bd e9 bc
       -0.092692554 -0.19926265 0.2769342 -0.028532643
000100 34 bf 35 be 47 ab 02 bf 85 7f c5 be 75 eb 3d 3d
       -0.1774872 -0.510426 -0.38573852 0.046367127
000110 0f ee 47 be 96 a3 1c 3d 7c 2a 11 be 4c 62 ce 3d
       -0.19524406 0.038241945 -0.14176363 0.100773424
000120 a3 6a 9a bc 4e 76 46 bd ee b3 41 3b 07 f2 63 be
       -0.018849676 -0.048452668 0.002955671 -0.22260295
000130 fa 66 55 3e 3f ff 76 be 6e 57 72 3d 72 f4 eb bd
       0.20840064 -0.24120806 0.05916541 -0.115212336
000140 69 64 14 be 88 51 5b 3e f8 30 c7 be cb 70 44 3e
       -0.14491428 0.2141782 -0.38904548 0.19183652
000150 30 77 ca 3e 44 d9 d5 bd 7c fb d5 bd 9b c8 c2 bd
       0.39544058 -0.10441831 -0.104483575 -0.09510919
000160 ab b0 20 be 51 ba 38 3b 24 13 8e be 6d 4a 7c 3e
       -0.15692393 0.0028187225 -0.27748978 0.24637766
000170 e8 44 c5 be 23 36 fb bd fb 3a c1 bd 6f 56 ff bd
       -0.38529134 -0.12266185 -0.09435078 -0.12467658
000180 62 55 24 3e e8 6d e7 bd 66 66 9a 3d 35 50 c7 3d
       0.16048196 -0.1130026 0.07539062 0.09732095
000190 b8 6b 28 be 62 82 5f be ac f5 cd 3d d7 73 45 be
       -0.16447341 -0.21827081 0.10056624 -0.1928247
0001a0 24 04 b5 bb 9c 7f d8 bd 60 5e 99 3e b6 a0 a0 3e
       -0.0055241752 -0.105712146 0.29954815 0.31372613
0001b0 bb 39 df be 98 00 e1 3d 74 5d b1 bd 87 36 66 be
       -0.43598732 0.109864414 -0.08660403 -0.22481738
0001c0 6f 6b b9 3d 1e b1 2c be ac 1a 6b bf a6 38 a5 3d
       0.090536945 -0.1686444 -0.91837573 0.080674455
0001d0 bc 16 08 3d d3 74 16 3e bc bd aa be c7 46 78 be
       0.033224806 0.14693002 -0.3334788 -0.2424575
0001e0 ff ae 24 3e 2e ab 1a 3e f0 ef 59 be 75 a4 78 be
       0.1608238 0.15104362 -0.21282935 -0.24281485
0001f0 28 10 b0 bd 58 b0 c4 3e 1c da 2e bd 68 ca 91 be
       -0.085968316 0.3841579 -0.042688474 -0.28474736
000200 78 a3 38 3c fa c4 dd bd 68 93 cf be a2 ad 96 bd
       0.011269443 -0.10828586 -0.4054215 -0.073573366
000210 19 2e 9f bd 37 b4 6a be 70 09 dd 3d 91 1c 8d bc
       -0.07772464 -0.22920309 0.10792816 -0.017225536
000220 9d 00 73 bd 39 02 81 3d 61 d3 53 bd c4 53 8a be
       -0.059326757 0.06299252 -0.05171526 -0.27017033
000230 d6 b9 ac be 86 20 39 be 81 d1 82 bd 66 13 88 3d
       -0.33735532 -0.18078813 -0.06387616 0.06644325
000240 a9 32 0c 3e 30 65 9c 3e 07 38 2c be 3b 44 ad bd
       0.136912 0.3054595 -0.16818248 -0.084602796
000250 97 68 af be 8f fd a6 3d 91 ac 19 3e fa 46 b0 bc
       -0.34259483 0.08153831 0.15007235 -0.02151822
000260 00 b0 12 3e 30 c3 fb bd 86 b2 cf be 93 c5 7f be
       0.14324951 -0.122930884 -0.4056589 -0.24977712
000270 a0 a7 a1 3e 4c 97 01 3f 42 a0 f4 bd 6a 81 b2 be
       0.315732 0.50621486 -0.11944629 -0.3486436
000280 d8 e0 3e 3e 80 7d ac be e6 16 12 bd 1a 70 8d bc
       0.18640459 -0.336895 -0.03566637 -0.017265368
000290 a7 ef 3d bd b4 3d 8e 3d e9 3e bb bd 06 f4 ca be
       -0.04637113 0.06945363 -0.091428585 -0.396393
0002a0 ca f6 7a be 57 de 38 be c4 7a 83 3d 85 31 24 3e
       -0.24508205 -0.18053566 0.064199 0.16034515
0002b0 fb d3 5b be 50 f8 65 3c b7 c1 44 be 7a 6e e3 be
       -0.21467583 0.014036253 -0.19214521 -0.44420224
0002c0 56 2c c4 be 2e 5e a4 be 42 3a 20 3d 60 61 09 bd
       -0.38315076 -0.32103103 0.03911806 -0.03354013
0002d0 ee ae 8d be 29 b7 bb be 5b d9 d8 bd 9f 88 ea bd
       -0.27672523 -0.36663178 -0.10588332 -0.1145184
0002e0 26 dc c1 3d 54 5d a1 3c 0d 52 ec bd 1d e9 1f bd
       0.09465818 0.019697823 -0.115390874 -0.039040674
0002f0 e3 b0 25 bd 7e 30 7f bc 2d 60 2d 3e d9 92 9c 3d
       -0.040451895 -0.015575526 0.1693122 0.076451965
000300 af 6f 7e 3d 7c b7 cf bc e7 cb c6 bd 96 27 3e bd
       0.06211823 -0.025356047 -0.0970686 -0.04642447
000310 ea 9e 5b bd 5f 52 a6 3e e5 d7 d1 3d 97 ad 95 bd
       -0.05361835 0.3248472 0.10246257 -0.073085
000320 87 38 69 3d 2f a7 bd bc 4d cf 67 bc 28 18 8c 3e
       0.056938674 -0.023151008 -0.014148545 0.2736218
000330 d1 8a 83 3d 5c 3e d0 3d 97 ae 85 bc f9 5f 47 3e
       0.064229615 0.10168144 -0.016318602 0.19470204
000340 40 f4 bf 3d d6 d5 a4 bd de be 89 3e 50 6d 8f be
       0.09372759 -0.080485985 0.26903433 -0.28013086
000350 39 ec 5d be 44 40 92 3c ac e8 a4 bf ad d2 00 3e
       -0.21672143 0.01785291 -1.2883506 0.12580366
000360 40 b2 45 3e 7f b9 88 3d 17 6f 2e 3e 99 68 62 3c
       0.19306278 0.066760056 0.17034565 0.013818883
000370 62 b0 4e bc df 37 8d 3b b3 bc a6 be 4e fa c6 3e
       -0.012615295 0.004309639 -0.3256584 0.38862842
000380 0a b7 bd 3b d9 cb e9 be 2f 7b fa bd 05 d5 fb bd
       0.005789642 -0.45663336 -0.12230527 -0.122964896
000390 d0 a6 c1 bc 1a 3c 95 3c e7 e2 53 be 31 32 30 be
       -0.023639113 0.018217135 -0.20692025 -0.17206647
0003a0 e1 eb 4f 3d 67 96 99 be 0b 86 6d 3e 9e 93 53 be
       0.05076206 -0.2999756 0.23195665 -0.2066178
0003b0 cb 99 b0 bd 6e 0e 71 3e 08 6c 97 be d8 3e ba bc
       -0.08623084 0.2354066 -0.2957461 -0.022735044
0003c0 c4 db 79 be ea 72 50 be e2 d4 78 bd ef 04 a3 be
       -0.2440024 -0.20356336 -0.060749896 -0.31839702
0003d0 cf 4d 1f 3d ae be 68 be a0 49 da 3e ed 71 27 3e
       0.038892563 -0.22728989 0.42634296 0.16352053
0003e0 67 0d 24 be fd 0d 90 be 84 eb 95 3e 26 66 85 be
       -0.16020738 -0.28135672 0.29281247 -0.26054496
0003f0 e1 c6 9f be 0a bd e3 bc 14 74 9b 3d fe d7 05 bd
       -0.3120642 -0.027800102 0.075904995 -0.03267669

fc1.bias f4 [128]
000000 53 93 c6 3d 32 49 ef bd 12 57 2a be 55 dd f0 bc
       0.096960686 -0.11683883 -0.16634777 -0.029402414
000010 12 08 01 be 30 1d da 3c 5f 88 a5 bc c6 46 a5 bd
       -0.12600735 0.026625246 -0.020206628 -0.080701396
000020 e2 49 4e bd f2 c1 ad 3d 72 29 3d 3d 0b ac 12 be
       -0.05036343 0.08484258 0.046182103 -0.14323442
000030 b4 35 bf 3d 67 ca ed 3d c0 ba 40 be 0e f1 e2 bd
       0.09336415 0.11610871 -0.1882124 -0.11081134
000040 7d 30 f9 bd 4d e5 88 be f9 db 9f bc 77 93 89 bd
       -0.121674515 -0.26737443 -0.01951407 -0.0671758
000050 17 2f 53 be e3 98 b2 bd d2 2e 51 3d be 03 94 3d
       -0.20623432 -0.08720567 0.051070042 0.07227276
000060 c8 5b 96 3b 04 b8 1f be c1 5c db bd 39 76 b9 3d
       0.004588578 -0.1559754 -0.10711051 0.09055752
000070 81 95 6f be 34 89 f1 3d 71 43 70 bd d1 d8 c9 3c
       -0.23396875 0.117937475 -0.058658067 0.024639519
000080 bd 1c 51 be 55 7d b3 bd 0a 49 83 bc ab 56 7e 3d
       -0.20421119 -0.087641396 -0.016026039 0.06209437
000090 00 d7 f7 bd c0 6d f3 3d f6 d0 c6 3d eb ae c4 3d
       -0.12101555 0.118861675 0.09707825 0.096036755
0000a0 27 4b 8f 3d 49 90 08 3d e8 42 1a bd e3 6c 1d 3d
       0.06996756 0.033340726 -0.037661463 0.03843392
0000b0 42 35 0d be c8 46 08 3e 6c 91 af bd 10 cf 25 be
       -0.13789847 0.13308251 -0.08572659 -0.1619227
0000c0 ed b3 8d bc 6b 67 8b bd 7b 2d d6 bc a4 c4 c7 bb
       -0.01729771 -0.06806835 -0.026144734 -0.0060964394
0000d0 33 e6 c8 3c 8a 0c 0a bd 02 c0 21 3e f1 ce 67 3e
       0.02452383 -0.033703364 0.15795901 0.22637536
0000e0 a4 9a 62 3d b2 60 3a bd 98 f2 80 3d bc 58 6f bd
       0.055323258 -0.045502372 0.06296271 -0.058434233
0000f0 16 b8 c5 bd 24 2b fe bd a1 82 fa 3d ff 23 e8 bd
       -0.09654252 -0.12410572 0.12231947 -0.11334991
000100 d7 08 34 be 41 b1 45 be 96 b3 21 be 37 f4 0e be
       -0.17581497 -0.19305898 -0.15791163 -0.13960348
000110 20 f7 2a be 95 07 02 be 83 af 7c bd ea 37 fd bd
       -0.16695833 -0.12698205 -0.06169082 -0.123641804
000120 8b e0 ed bd 2a 73 44 be 02 c5 1c bd 4b 2a 1e be
       -0.11615094 -0.19184557 -0.03827382 -0.15445821
000130 82 33 e9 bd 6c 9c 1f 3e 37 55 9e bd cd f6 8e 3d
       -0.113867775 0.15587014 -0.07731097 0.06980667
000140 d5 61 ac bd 76 e3 3c bc 0a 1c 57 3d 17 b0 0b be
       -0.084170975 -0.01152884 0.052516975 -0.13641392
000150 3e f5 ee bd 5b 4b ef bd a2 33 21 bd 93 34 32 3e
       -0.1166787 -0.11684295 -0.03935588 0.17402868
000160 7d 30 be bd 39 a6 90 3b 68 1f e9 bd ef 88 1d 3e
       -0.09286592 0.0044143465 -0.113829434 0.15384267
000170 a0 e7 85 3d 55 27 28 3e 11 c2 bd bc f1 4f 2b 3c
       0.065383196 0.16421254 -0.023163827 0.010456071
000180 82 78 b5 bc 1b 9a 20 3e 35 e9 95 bd 1d 9d 9c bd
       -0.02215219 0.15683787 -0.07319871 -0.076471545
000190 82 53 42 3e b2 31 d9 3c a7 e7 aa bb ae 85 7e be
       0.18977168 0.026512954 -0.0052156034 -0.24855682
0001a0 b8 67 dd 3c 41 dc 89 bd ca ed 67 bd a1 5f ac 3d
       0.027026996 -0.06731463 -0.056623258 0.08416677
0001b0 25 7c 4f 3e 4b 0c 62 3b 2b 48 fd bd 2f 55 0e be
       0.20262201 0.003449219 -0.123672806 -0.13899682
0001c0 e9 68 08 3d 9b 8c 3f 3d 9e 2c 85 be 6b 30 7f bd
       0.033303175 0.04676495 -0.26010603 -0.062302034
0001d0 2c 14 f5 bd bd 4f 1d 3d e8 f7 fc bd 85 d4 33 bd
       -0.11966738 0.038406122 -0.12351972 -0.043903846
0001e0 d6 bb 25 be 4c 54 e4 3d 67 a7 16 bb 8d 9b 10 3e
       -0.16184935 0.11148891 -0.0022987963 0.14121838
0001f0 7e 87 33 be 36 fe 6a be 85 0a 24 be e9 ae 22 be
       -0.17532155 -0.22948536 -0.16019638 -0.15887035

fc2.weight f4 [64, 128]
000000 d4 a0 6c be 71 72 ba 3d 62 3a e3 bd 2f b0 9a 3c
       -0.23108226 0.09103859 -0.1109512 0.018882839
000010 00 18 0f 3e d0 ea a7 bd ec ee 1a bd a7 79 35 bd
       0.13973999 -0.08199084 -0.03782551 -0.04430547
000020 4b c1 9d be a2 31 d9 bd e5 7c 13 3e 1e 2f 01 bf
       -0.30811533 -0.1060517 0.14403112 -0.5046252
000030 90 14 0d 3c b9 19 97 bc 62 b0 1c be dc b6 36 be
       0.0086108595 -0.018444883 -0.1530166 -0.17843193
000040 8c 39 3f be 2c a3 2a bc fa 75 9b bd 38 5b 12 bf
       -0.18674296 -0.01041488 -0.075908616 -0.5717044
000050 22 5f 49 bd e7 f0 79 be 90 29 46 bd a9 23 ae bc
       -0.04916299 -0.24408303 -0.04837948 -0.021257238
000060 ee 8d ee 3d 1c 7f 05 3d 25 5c ac 3d de ee 3c be
       0.11648165 0.032591924 0.08416013 -0.18450496
000070 31 a7 94 bc ef 8e 1c bc 5a 96 9d 3e 5a f1 29 bc
       -0.01814613 -0.009555562 0.30778772 -0.010372484
000080 e6 55 fe bb 3c 89 23 be dc e6 ae 3d 19 c1 33 be
       -0.0077617047 -0.1597032 0.08540127 -0.1755413
000090 61 e1 ce be 67 a4 8e be 4a 8b b5 bd a6 63 5f 3e
       -0.40406325 -0.27859804 -0.08864458 0.21815357
0000a0 18 2c a4 3d ac cc 47 3d 10 9b a8 3e 09 2e 0e bd
       0.08016223 0.048779175 0.32930803 -0.03471187
0000b0 03 d4 ff bc e3 fa 38 bd 64 77 3d be 4b c5 33 bd
       -0.031229025 -0.04516114 -0.18502575 -0.043889325
0000c0 75 77 c2 bd 26 8c 1f 3e 0a 3b 24 bc e2 54 16 3d
       -0.09495441 0.15580806 -0.010023842 0.036702044
0000d0 fd f5 06 be 74 42 10 be 42 09 3f 3d 19 6f 48 be
       -0.13179775 -0.1408785 0.04663969 -0.1957363
0000e0 a5 b2 cb bd fd 93 19 be 52 fc f9 3c e2 1e 84 bd
       -0.09946183 -0.1499786 0.030515824 -0.06451203
0000f0 38 ea 15 3e 9c 85 08 be 99 ac a2 3c c6 17 cc bd
       0.14640129 -0.13332218 0.019857692 -0.09965472
000100 cd 21 18 be b8 b0 86 3d 97 38 61 bc 26 e0 71 3d
       -0.14856644 0.06576675 -0.013746402 0.059051655
000110 af 24 4e 3d 55 27 e1 3c 41 e3 a4 3e 71 74 f6 bc
       0.050327953 0.027484575 0.3220463 -0.03008482
000120 af aa 33 3e 8f 8e 59 bc 15 f9 8b bb ac 98 ad be
       0.1754558 -0.0132786175 -0.0042716363 -0.33905542
000130 33 f2 d3 bd 77 73 00 be 18 dc ac 3d 71 ef 7a be
       -0.1034893 -0.12544046 0.08440417 -0.24505402
000140 34 35 46 be 8e 35 c3 3d ae c8 c4 be b7 eb cb 3b
       -0.19356233 0.09531699 -0.38434356 0.0062231678
000150 d0 8c 3e 3d 71 75 ed 3a 4e d0 98 3e 21 d1 23 3c
       0.046521008 0.0018116665 0.29846424 0.009998591
000160 2f 9d b1 bb 26 99 f1 3d e5 c2 dc 3d df b9 09 be
       -0.005420349 0.11796789 0.10779361 -0.1344981
000170 ad 24 b5 be aa 81 10 be 2a 29 ef 3d 8e 12 f7 3d
       -0.35379544 -0.14111963 0.11677773 0.12064086
000180 00 a3 0d 3e 5e f7 2c 3e d8 dc 73 3e c1 97 ff be
       0.13831711 0.16891238 0.23814714 -0.49920467
000190 f5 7b bc bd 6d 0b 45 be 82 63 02 3e dc b1 ab 3d
       -0.092033304 -0.1924264 0.12733272 0.08383533
0001a0 f4 12 9a be c4 8d a7 3c bd 40 f1 bd f4 53 40 3e
       -0.30092585 0.020453341 -0.11779926 0.18782026
0001b0 97 b2 a7 3b 02 0c 6e be 8e 0c 4a 3d e1 83 2b 3d
       0.005117725 -0.23246768 0.04932838 0.041873816
0001c0 07 c2 82 3b 16 fd ec 3d b9 f2 2e be 8f 99 be 3d
       0.003990415 0.1157171 -0.17084779 0.09306633
0001d0 27 24 b3 3d 34 61 2b 3e c5 b2 8f be 4e b0 f3 3c
       0.0874713 0.16736299 -0.28066078 0.029747155
0001e0 30 a3 47 be 50 9b 18 be 0a 42 ab bb d2 23 b8 be
       -0.19495845 -0.14902997 -0.0052263783 -0.3596483
0001f0 5f 00 a3 bd 89 88 f7 bd c0 86 30 be b4 b8 de 3d
       -0.07959055 -0.12086589 -0.17238903 0.10875073
000200 8d 84 a3 3d fc 3c a1 ba 4e 63 35 3d 62 83 b5 bb
       0.079842664 -0.00123015 0.044284157 -0.0055393437
000210 b1 9a a9 3e 58 db 34 3d dd 74 83 3d 31 c7 60 3d
       0.33125833 0.044154495 0.06418774 0.054877464
000220 c9 79 01 3d da d2 06 3d dd f2 12 3e d1 71 bd be
       0.031610284 0.032915927 0.14350457 -0.37000898
000230 20 f0 56 bc 3c 1a 9b bc b6 23 08 be 99 a1 a4 bd
       -0.013118774 -0.018933408 -0.13294873 -0.08038635
000240 d1 0f 61 3d a6 4c a7 bd 0e 45 66 be 4b 85 df bc
       0.054946724 -0.081689164 -0.2248728 -0.027285239
000250 54 e3 58 be 02 97 87 bd 55 58 fb 3d 36 3d 56 3e
       -0.21180469 -0.06620599 0.122727074 0.20921788
000260 00 bc 75 3c 25 6f 30 3e 80 8f 6e 3e 32 84 e4 bd
       0.014998436 0.17229898 0.23296928 -0.11158027
000270 48 26 97 be 3c f0 52 be 4e cb 18 3d 6e 19 61 3e
       -0.29521394 -0.20599455 0.03730326 0.21982357
000280 f9 86 0f bd 89 4f 7d 3d f3 4b 8d 3d a5 41 5e bd
       -0.03504083 0.06184343 0.06899252 -0.054261822
000290 bc 19 cd 3d 5f 2c be 3d d5 1e 87 be b7 fa 34 3e
       0.10014674 0.09285807 -0.2639071 0.17673765
0002a0 e3 e4 54 bd dd 16 88 3b e2 97 3f be e0 9f 88 be
       -0.051976096 0.004153116 -0.18710282 -0.26684475
0002b0 64 e9 81 3d 05 4e 4a 3d 18 e6 3e bd 18 82 ef 3d
       0.06343344 0.04939081 -0.046606153 0.11694735
0002c0 cb 10 70 3c 17 0e b1 3e db 49 16 3d fa a9 e9 3c
       0.014652441 0.34581062 0.036691528 0.028523434
0002d0 2b ff 65 be ee 39 4e bd d7 07 25 3d b1 4c 12 be
       -0.2246062 -0.050348215 0.04029068 -0.14287068
0002e0 5b 71 7b bd c1 9e 80 3d c4 80 48 3e 2b db 45 3d
       -0.0613874 0.0628028 0.1958037 0.048304718
0002f0 17 5a 28 bd e3 c9 06 bd c9 8a 93 be b9 3b 43 be
       -0.04110154 -0.032907378 -0.28816822 -0.19065751
000300 f6 9a 87 3e 86 53 7c 3c 64 76 13 3e 00 05 2c 3d
       0.26485413 0.015400773 0.14400631 0.041996956
000310 dc 27 58 3e 6a b6 5c 3c 85 66 10 3e b9 1f 99 3c
       0.21108955 0.013471225 0.14101608 0.018691884
000320 88 30 b9 bc 7d 0d 4d bd 7c e4 e4 bb 63 74 bc 3d
       -0.02260615 -0.05006169 -0.0069852453 0.092018865
000330 be 1a 55 bd 3d 40 cc 3b e1 8d 4a bd 03 a6 49 3d
       -0.052027456 0.0062332437 -0.049451713 0.049230587
000340 aa 63 e2 3c 24 1b 80 bd e2 b9 e0 3c bb 50 03 3e
       0.027635414 -0.06255177 0.027432386 0.12823765
000350 09 03 8f be 69 1c 13 3e 4a 51 6d 3d 79 7b 1f bd
       -0.27932003 0.14366306 0.05793885 -0.038936112
000360 f8 8a 32 3e 72 45 39 be b7 c9 86 3d 2f 09 93 bd
       0.17435825 -0.18092898 0.06581443 -0.07179486
000370 79 84 90 bc e4 e7 a3 bc 58 12 8b be 0e cb d2 3d
       -0.017641293 -0.020008035 -0.27162433 0.10292636
000380 83 09 57 3d b0 d1 8e bd dd d8 1f bd 41 90 01 3d
       0.052499305 -0.069735885 -0.039025176 0.031631712
000390 ad 36 e8 bd 1f dc 0d be dd a3 e4 3c 80 5d 93 bd
       -0.113385536 -0.13853501 0.027910167 -0.07195568
0003a0 66 3a e0 3d ed 74 fa 3d ba e6 93 be f5 c8 b4 bd
       0.109486386 0.12229333 -0.28886968 -0.08827392
0003b0 ed 1d a1 bd 50 cb 74 be 83 4c 41 3e 38 fa ac 3d
       -0.07867036 -0.23905683 0.18876843 0.08446163
0003c0 00 d7 6f be 6b 32 00 3d 71 79 b4 3d ec 09 f3 be
       -0.2342186 0.031298082 0.088122256 -0.47468507
0003d0 06 00 51 3e 95 ea 3f 3d 85 48 cc bd f4 07 81 be
       0.20410165 0.046854574 -0.099747695 -0.2520138
0003e0 62 d7 b8 bd 3d 26 31 bd 7e 7b b0 3a 0a 5b 20 bd
       -0.09025456 -0.043249357 0.0013464538 -0.03914932
0003f0 73 3b bf 3d e2 35 fe 3d 2c 60 d9 bb 55 cb 83 3c
       0.09337511 0.12412621 -0.006633779 0.016088167

fc2.bias f4 [64]
000000 8d 0b 9e 3d 43 3e ed bc 5e c6 32 bd 6b d7 f0 bd
       0.07717047 -0.028960353 -0.04364621 -0.11759838
000010 06 5c 06 3c 78 77 17 bc f7 fc 51 bd 7b 89 56 3d
       0.008200651 -0.009244792 -0.051266637 0.052377205
000020 8c 1a 7d 3e 40 67 9c bc 52 56 5b bd 1f 97 44 3a
       0.24717158 -0.019092202 -0.05354912 0.00074993254
000030 fa 63 f8 3c 76 18 f4 3c a8 3a de bd 12 6b 0e bc
       0.03032111 0.02979682 -0.108510315 -0.00869252
000040 98 67 c4 bd b6 0f 40 bd f8 97 83 3d 7d c4 96 bd
       -0.095900714 -0.046889983 0.0642547 -0.07361696
000050 92 df b1 bd 2d b8 7c 3d bd de 68 3c 1c ae ec bc
       -0.08685221 0.06169908 0.014213261 -0.028891616
000060 90 ef 0e be ad cd ca ba 0b e2 5e bd 3c d2 17 3e
       -0.13958573 -0.0015472673 -0.05441479 0.14826292
000070 5e 1e 0e 3d f9 f5 b8 3d cd 6d a0 3d 08 f3 c1 bc
       0.03469693 0.090312906 0.07833443 -0.023675457
000080 fb b5 0d 3e 2c 97 be bb e5 01 98 3d 9c 4c b3 3d
       0.13838951 -0.005816361 0.07422236 0.087548465
000090 de 00 d0 3a 25 c0 f9 3c ee 80 d4 3d 05 a2 09 bd
       0.0015869399 0.03048713 0.10376154 -0.03360178
0000a0 82 f8 8d 3a b3 82 aa bd 65 89 a1 3d bb 6c 38 3e
       0.0010831507 -0.0832571 0.07887534 0.18010227
0000b0 da 8f 13 be be 06 ee 3c a5 fe 6a bc de 79 68 3d
       -0.14410344 0.02905595 -0.014342939 0.056756847
0000c0 82 dc 06 bd 26 0a ca 3b ac bd 24 be 7b 97 2a 3d
       -0.032925136 0.0061657606 -0.16087979 0.04164837
0000d0 fb 99 9b bb 8b bf 34 3d b6 7f 63 bc f2 26 b9 bc
       -0.0047485805 0.044127982 -0.013885429 -0.022601578
0000e0 38 b4 76 3c 71 91 bc bc 78 97 9b 3c d6 3d b8 3c
       0.015057616 -0.02301857 0.018993124 0.022490423
0000f0 67 cc a9 bc 07 ac 96 3d d1 86 70 bd 00 bc 0d bd
       -0.02072735 0.0735703 -0.05872232 -0.03460312

fc3.weight f4 [32, 64]
000000 f1 e5 02 3f f2 f0 04 bb 3d fa 85 be b0 7d fd bd
       0.5113211 -0.0020285216 -0.2616748 -0.123774886
000010 bd 2c fb 3d 0d cd f0 3e a2 e7 24 3e 7a e4 c7 bc
       0.122643925 0.4703144 0.16103986 -0.024400938
000020 27 b7 61 3d 6f 02 e1 3e 40 94 b4 3b 26 ee c3 be
       0.05510631 0.4394717 0.005510837 -0.3826763
000030 3f f7 ce bd 5b e7 96 3d e4 d3 29 be 03 fd 14 bf
       -0.10105752 0.07368346 -0.16584736 -0.58198565
000040 8b 77 ff be 6f 15 57 3f 3d 7d 77 3d d5 45 0b 3e
       -0.49895892 0.8401708 0.06042217 0.13600858
000050 e6 7a 45 3d e9 4a b1 3e 17 59 7a bc a6 7f 79 3e
       0.04821291 0.34627464 -0.01528003 0.243651
000060 79 b4 bc bb 36 b6 4a 3e 0e 17 ca bb 53 0c be bd
       -0.0057588187 0.1979607 -0.006167299 -0.092796944
000070 e8 3f a9 be 7e 89 b9 bd 8f fb 79 bd 74 6f b2 be
       -0.3305657 -0.09059428 -0.06103092 -0.34850657
000080 15 b2 1f 3e 40 0e b4 bd 63 2a e7 bd 87 b2 04 3e
       0.15595277 -0.087917805 -0.112873815 0.12958728
000090 ed 5b 96 be 0b 95 15 bd a4 0e 23 be 4f a8 aa be
       -0.2936701 -0.03651909 -0.15923554 -0.33331534
0000a0 63 41 d9 be 39 c9 82 3e 36 5b 8c 3d 66 40 b5 be
       -0.424327 0.25544146 0.068533346 -0.35400695
0000b0 ae 64 df bc fe b6 d4 be b4 f4 1f bf ed 50 8a 3e
       -0.027269688 -0.41545862 -0.6248276 0.27014866
0000c0 9f 6c 76 be ab 73 94 be ff 78 18 3e ed ee 8f 3d
       -0.24064873 -0.28994498 0.14889906 0.07027993
0000d0 8b a7 95 3e 46 37 4d be e2 11 ca be f7 ed ca 3c
       0.29229388 -0.20040616 -0.39466769 0.024771674
0000e0 98 40 5e be 58 0c 8c 3d 81 44 22 be b4 86 c2 bd
       -0.21704328 0.06838292 -0.15846445 -0.09498349
0000f0 20 04 f8 3c 8f fa a3 3d 3e 20 c4 be c4 b9 d7 3d
       0.030275404 0.08006775 -0.3830585 0.10533479
000100 c9 e0 09 3f 69 da 60 3b c2 6e 24 3e 0a df 7e bd
       0.5385862 0.003430987 0.16057876 -0.062224425
000110 5a ae 29 be 98 98 a9 be 9a 26 a3 3d 4d 4a 31 3e
       -0.16570416 -0.33124232 0.07966347 0.173135
000120 6b 63 28 3b 05 df 01 bf a6 e3 13 3a 77 18 93 bb
       0.0025694023 -0.50730926 0.0005641527 -0.0044890004
000130 06 f3 b3 ba 1e 1d 53 be 6d 9a f2 3d 52 9b 4a 3d
       -0.0013729043 -0.20616576 0.11845861 0.04946453
000140 d8 48 b6 3d 5f e3 b9 be 57 c4 6a be 84 b4 1c be
       0.089006126 -0.36306283 -0.2292646 -0.15303236
000150 ab d0 e9 be 80 c6 20 bd 75 a9 d4 bc 47 52 bc bc
       -0.45667014 -0.039251804 -0.02595971 -0.022988452
000160 dd cb 9a bd ab db 17 3e 9d 7e 80 3e 7a d5 b3 3d
       -0.07558415 0.1482989 0.25096598 0.08780952
000170 a4 e5 73 3e 89 59 81 3e e8 37 ae 3d 06 72 a9 be
       0.2381807 0.25263622 0.08506757 -0.33094805
000180 e3 56 0c 3e 4c ff 63 3e 72 ad 84 bd 1b 0d 1a bd
       0.1370502 0.22265357 -0.064783946 -0.037610155
000190 5f 35 b1 bc 85 5b b4 be 09 8a 27 3d 17 17 e6 3e
       -0.021631895 -0.35226074 0.040903125 0.4493949
0001a0 19 cb 00 3b 7c dc a7 be 2e 9a 2c 3b 92 d8 f4 3d
       0.0019652306 -0.32785404 0.0026337015 0.1195537
0001b0 be 79 94 bd 3b 01 b6 3d ee e7 c5 bd ae 79 56 bc
       -0.07249783 0.088869534 -0.09663378 -0.013090534
0001c0 7d 51 53 3e 64 8c e4 bd a9 9f 7c bd 25 88 33 3e
       0.20636554 -0.1115959 -0.0616757 0.17532404
0001d0 48 8e a0 be ba a1 e3 be 88 fa a1 be 81 35 22 3d
       -0.31358552 -0.44459325 -0.31636453 0.039601807
0001e0 61 c4 99 3e dd 46 fb 3d cc e8 e6 3a 11 1f a8 b9
       0.30032638 0.122693755 0.0017616986 -0.00032066603
0001f0 e0 03 ab bd 76 ef 29 be af a8 d8 bd 85 af e4 3d
       -0.083503485 -0.16595253 -0.10579049 0.1116629
000200 9a 4c a0 bc 8a bf 21 be a7 3c 46 3d 8e 4d 02 be
       -0.019567776 -0.15795723 0.048397686 -0.12724897
000210 8f 1b e3 bd a3 e9 0f 3e cc c8 85 bd 3a ab bf 3c
       -0.11089241 0.14053969 -0.065324396 0.023397077
000220 37 1e e3 bd 3a f9 0f bf 74 55 9c bc 25 73 01 bd
       -0.110897474 -0.56239665 -0.019083716 -0.03160395
000230 48 de 29 3e 8f 88 73 3e 57 d2 a3 bd 22 07 06 3d
       0.165887 0.23782562 -0.079991035 0.032721646
000240 05 1d 51 3e ea 1d 8a 3e a9 7f 03 bf d8 54 b3 be
       0.20421226 0.26975948 -0.5136667 -0.35025668
000250 cb 3a f2 be b0 32 be be bf 67 0e be 53 83 95 3d
       -0.4731048 -0.37148046 -0.13906763 0.07300439
000260 5c d7 37 3d 89 65 4f be ba 1f 90 bc 1e f7 91 be
       0.044883117 -0.20253576 -0.017593253 -0.28508848
000270 9f 17 d7 bd 9e af 8d ba d1 42 ab 3d bd 11 4d 3d
       -0.10502552 -0.0010809784 0.083623536 0.050065745
000280 bd 43 72 bd c1 69 cf 3d be 7e 23 bd 8d c7 0d 3d
       -0.05914663 0.10127593 -0.039915793 0.034614135
000290 77 2c a0 3e f1 82 c9 bd 7b 72 c7 3e b7 22 03 3e
       0.31283924 -0.09839428 0.3895453 0.12806211
0002a0 0b fa ee 3c cd eb 94 be f7 2d eb be d5 26 12 be
       0.029171964 -0.29086152 -0.45933506 -0.14272626
0002b0 a2 13 77 3a 4c 47 25 be 94 61 25 3e ed 12 c5 3c
       0.0009425228 -0.16140479 0.16150504 0.024056876
0002c0 45 52 4d 3d 3b 52 b7 3d b4 08 20 3e 95 16 66 bc
       0.050127286 0.08951231 0.1562832 -0.01404347
0002d0 73 66 15 3d 8b 44 c5 3d 09 38 89 be dc 45 f8 3d
       0.036474656 0.09632214 -0.26800564 0.121226996
0002e0 34 4c 10 be 62 ad 08 be 0b 63 de bd 30 d2 3c be
       -0.14091569 -0.1334739 -0.10858735 -0.18439555
0002f0 5b 17 c7 bd 1b d1 1e 3e 54 c7 13 3e 8a 0d ad 3d
       -0.097212516 0.15509455 0.14431506 0.08449848
000300 c8 ac 5e be 66 12 f3 be 53 26 2f 3d 30 03 bf 3d
       -0.21745598 -0.47474974 0.04276116 0.0932678
000310 70 e7 3e be 4f 86 2d 3e 52 c1 f5 3d e5 3c 5a be
       -0.18642974 0.16945766 0.119997635 -0.21312292
000320 0e e1 ab be 2c 15 20 3e f4 e9 93 3d 8a 3d df be
       -0.3357014 0.15633076 0.072223574 -0.43601638
000330 76 cd d5 3d 8e 10 3f bd a3 b8 28 be 57 47 a9 be
       0.10439579 -0.046646647 -0.16476683 -0.3306224
000340 bd a6 f9 be ef cc c1 be d1 10 04 bd 80 db 84 3d
       -0.48760024 -0.37851664 -0.0322426 0.06487179
000350 5e a3 f6 bd fc e9 7c 3e 35 c1 1d 3d 2d 23 31 bf
       -0.120428786 0.24698633 0.038514335 -0.691943
000360 dc da c9 3d f8 17 ad 3d db 0f 15 bd e5 8b 15 3e
       0.09856197 0.08451837 -0.036392074 0.14604147
000370 fd 68 50 bd 8a 39 c1 3d 6f 75 0a be f1 55 71 3e
       -0.050881375 0.09434803 -0.1352136 0.2356794
000380 35 af 29 be 9b 34 af be 81 9e 02 bd e2 ad dc bd
       -0.16570742 -0.34219822 -0.031889442 -0.10775353
000390 84 c0 ff be 22 a8 92 3d 35 e1 cf 3e e2 d9 a0 be
       -0.49951565 0.07160975 0.40601507 -0.3141623
0003a0 00 ba 9c bc bc 8b 89 3d af c3 f1 3e b6 ca 08 bc
       -0.01913166 0.06716105 0.47219607 -0.008349111
0003b0 bb 0a 5e be 4a 70 e0 bd 4f 13 8a 3d 0f 10 00 3f
       -0.21683781 -0.109589174 0.06741964 0.50024503
0003c0 10 41 b7 3e 02 64 2d 3e fc 10 a9 bd 15 a7 08 be
       0.35791826 0.16932681 -0.08255193 -0.13344987
0003d0 82 54 9b 3d 3f 49 a5 3e cd c2 c7 bd af e8 45 3e
       0.07584478 0.32282445 -0.09753952 0.19327043
0003e0 79 0a d0 bd 57 14 d6 bc 92 8a 67 3c 56 13 b8 bd
       -0.101582475 -0.026132746 0.014132159 -0.08988063
0003f0 e3 de de 3d 5f e2 29 be 71 3c b7 3c f1 28 c9 3d
       0.10882356 -0.1659026 0.022367688 0.09822262

fc3.bias f4 [32]
000000 fa 74 25 be 5a 7a 45 bd 6a d2 41 3e f7 51 11 be
       -0.16157904 -0.048212387 0.18927923 -0.14191423
000010 61 ff dc 3b 96 ad be 3d 99 a3 7a bd e3 88 c1 3d
       0.0067443107 0.09310453 -0.061191175 0.09449937
000020 ba 78 c5 bc c9 fe 68 3d 3c a8 4c 3c dd 13 6e 3d
       -0.024105418 0.056883607 0.012491282 0.05812441
000030 cb 9f d0 bc a4 91 48 3d f4 ae 9d 3e 09 ed c3 bd
       -0.02546682 0.04896702 0.3079754 -0.09566695
000040 13 a9 dc 3d 8e 00 f5 bc 8f 08 43 3e 58 af 72 3d
       0.10774436 -0.029907491 0.19046234 0.059249252
000050 47 77 09 be ac 4c d8 bc 0a 99 1f 3d 8c 33 c8 3e
       -0.13424407 -0.026403747 0.03896431 0.39101827
000060 66 b7 ca bd b3 f5 5a bd 13 36 66 3d c0 98 fd bd
       -0.09898262 -0.053456973 0.056203913 -0.123826504
000070 0a 09 d8 3c 56 d0 56 bd 2b cb b6 3e 4a 0f 57 3d
       0.026371498 -0.05244478 0.3570188 0.052504815

val.weight f4 [1, 32]
000000 49 da 43 bf 47 c5 58 be c3 96 b3 3e 8c 1b a6 bd
       -0.7650495 -0.21169005 0.3507596 -0.08110723
000010 59 63 05 bf ba 60 1e be 5d 05 89 be 92 a5 72 3f
       -0.5210472 -0.15466586 -0.26761904 0.9478389
000020 24 d6 3d bf 75 2c 02 3f 2a 9a 1c bf 28 62 e1 3e
       -0.7415488 0.50849086 -0.61172736 0.440202
000030 59 61 05 be 8e 79 b0 3e 8c 90 3d 3e c8 5a 60 bf
       -0.13025416 0.3446774 0.18512172 -0.8763852
000040 db 91 1d 3f 24 f3 16 bf a9 6d 23 3d c7 1c cb be
       0.6155068 -0.58964753 0.039899502 -0.39670393
000050 18 18 61 be 5f d6 04 be da 55 d9 3e 64 57 eb 3e
       -0.21981847 -0.12972401 0.42448312 0.4596511
000060 ae 9f d6 be 68 94 12 3f dc 75 9c 3f 36 a9 02 bf
       -0.419187 0.572577 1.2223468 -0.51039445
000070 19 d5 f3 bd 48 1a 89 be 68 0d a2 3e 2c 94 db 3e
       -0.119058795 -0.26777864 0.31650853 0.42886484

adv.weight f4 [4, 32]
000000 97 0d a6 3f 19 62 81 3e c4 ff cb 3d de 57 5f bf
       1.2972897 0.25270155 0.09960893 -0.8724345
000010 87 80 78 be 5e ae f2 be 86 08 e8 3d f4 6e 2f bf
       -0.2426778 -0.47398657 0.11329751 -0.68528676
000020 ec 44 27 bf ab 73 46 be 8e 00 cc 3c dc 06 bd be
       -0.6533954 -0.19380061 0.024902608 -0.36919296
000030 fa 6c 1e 3e 90 83 90 be d3 45 55 3e ab 83 a2 be
       0.15471259 -0.28225374 0.20827417 -0.3174108
000040 14 98 98 be 16 c3 17 3f 70 80 4b be 6f 35 77 be
       -0.29803526 0.5928205 -0.19873214 -0.24141477
000050 bc 69 c4 3e 5f 16 e8 be 5b 16 3a 3e 4b fe 1b be
       0.3836192 -0.45329568 0.1817259 -0.15233724
000060 d3 f3 f2 3e b7 19 13 bf 1d c7 c1 bd 2f 6b 9a bc
       0.47451648 -0.5746111 -0.09461806 -0.018849937
000070 76 9f 0a bd 02 50 4f 3e 58 ca 19 3e 6b 91 16 3e
       -0.03384348 0.20245364 0.15018594 0.1470391
000080 f8 cd 10 bf 7b 32 1e 3e 00 cf 08 bd f5 62 11 bf
       -0.56564283 0.15448944 -0.033400536 -0.5679162
000090 a5 01 c9 be b7 56 0a bf 4c c4 80 3f 63 12 c9 3e
       -0.39259067 -0.54038566 1.0059905 0.3927184
0000a0 66 b0 26 bf 92 9c 74 3c 17 64 0e 3f a6 35 dc bd
       -0.6511291 0.014929907 0.55621475 -0.1075242
0000b0 2a 29 45 3d f4 83 36 3d 9d 96 cb 3d 44 a8 28 3f
       0.04813496 0.044559434 0.099408366 0.6588175
0000c0 b8 41 28 3c e4 45 39 bf 0f 97 84 bd 3a 6f 24 3f
       0.010269575 -0.7237227 -0.06474125 0.6423222
0000d0 55 b0 04 bf 72 d4 56 be f3 d5 3e 3e c8 8b 21 3d
       -0.5183156 -0.20979479 0.18636303 0.039439946
0000e0 a8 57 af 3e 53 22 b9 3e a2 37 57 3e 8a b1 52 bf
       0.34246564 0.36159 0.21017316 -0.82302153
0000f0 d9 c9 70 3f 5b 62 43 3e e2 ba 6e bd f9 df b4 3e
       0.94057995 0.19080488 -0.058283694 0.35327128
000100 86 1e ec 3d f6 a7 30 be 60 f3 87 bd 28 c8 5f be
       0.115292594 -0.17251572 -0.06638217 -0.21853697
000110 6d 5f fd 3e 07 0c 68 3f 4f 42 da be 7f 93 86 3e
       0.49486867 0.9064335 -0.42628714 0.26284406
000120 f5 93 dc 3f cb 2c d7 be 40 49 3e be 97 1a 64 3e
       1.7232653 -0.42026362 -0.1858263 0.22275768
000130 98 ca 25 3e 5d 29 ae bd 08 b2 58 bd 02 35 76 3d
       0.16190565 -0.08503983 -0.05290416 0.060109146
000140 0d 42 ea 3c 63 e9 95 3e 30 8f 99 be 89 de 12 be
       0.028595949 0.29279622 -0.29992056 -0.14342703
000150 95 1f d3 3e fb 49 f0 3e 76 20 42 bd 69 8a a0 3e
       0.41235033 0.46931443 -0.04739424 0.313556
000160 db 22 1d 3f 95 dc 95 bf 31 42 9d bd 32 c5 e3 3e
       0.6138131 -1.1707941 -0.07678641 0.44486386
000170 f5 30 0d bf 34 7f 57 be b1 ca 0f be 2a ff 18 3e
       -0.5515283 -0.21044618 -0.14042164 0.14941087
000180 2e 9d b0 3e f0 6c ab 3d 06 9f 3a be 15 87 98 3f
       0.3449492 0.083703876 -0.18224725 1.1916224
000190 d3 a5 43 3d a8 23 00 3f e9 49 4b bf 71 93 1d bf
       0.047765564 0.5005441 -0.7940965 -0.615531
0001a0 43 31 1c bf ec bb 9d 3e 02 c8 6e be a0 d7 cd bd
       -0.6101267 0.30807436 -0.23318484 -0.10050893
0001b0 55 bc ca be 16 d4 1d 3e ee 3d 88 be 6e 00 9d 3f
       -0.3959681 0.15412936 -0.2660975 1.2265756
0001c0 f0 fd 7a bd cf 5a fd 3d 47 07 b0 3e 2e 48 9c 3d
       -0.06127733 0.12370836 0.34380552 0.07630955
0001d0 fd fc d1 3e 66 90 86 bd e2 78 23 bf f1 a5 55 3c
       0.41013327 -0.065705106 -0.6385633 0.013040052
0001e0 82 ae 2c bf db 08 fd 3e bf 60 c1 bc f9 8d d6 3e
       -0.6745378 0.4942082 -0.023605702 0.41905192
0001f0 63 71 31 bf 6d 49 bc be 51 d8 09 3e b7 79 90 be
       -0.6931364 -0.3677477 0.13461424 -0.2821786

adv.bias f4 [4]
000000 cd 81 18 3d f8 45 34 bd b6 40 27 bd df b1 40 bd
       0.037233163 -0.04401204 -0.040833198 -0.04704463
